p3_collab-compet/checkpoint_MA_actor.pth (torch, 143767 bytes, 6 tensors)

fc1.weight f4 [200, 24]
000000 76 d1 04 3f 90 d7 a5 3d cf ff 9c be 8a 7a 91 3e
       0.5188211 0.08097756 -0.30663916 0.28413802
000010 b9 ff 6b bd ae 79 28 be a9 ab 7d be ba 43 43 3e
       -0.057616923 -0.16452667 -0.24772514 0.19068804
000020 a1 ed 05 3f cc c8 b7 3e 99 a3 96 3d ba 87 ba 3e
       0.5231572 0.35895383 0.073554225 0.36431676
000030 f1 e4 2b be e2 36 b8 bd 10 fe b3 3d c6 24 c7 3e
       -0.16786553 -0.08994843 0.08788693 0.38895243
000040 ab d5 1d 3f 49 88 f3 3e c2 98 da 3d b2 dd f6 3e
       0.61654156 0.47564915 0.106736675 0.48216015
000050 eb 71 9d be b8 e9 2e 3d b1 8c 4a 3e ce 98 cf 3e
       -0.30750975 0.04270336 0.19780232 0.40546268
000060 0f 04 62 3f 1e 3b 00 be 90 61 cf bd 0e 08 f0 3e
       0.8828744 -0.12522551 -0.101260304 0.46881145
000070 50 60 3e bf 4a a6 7a be ce a9 1b bd e6 85 e5 3e
       -0.7436571 -0.24477497 -0.038003735 0.4482872
000080 25 4d 66 3f 82 d4 96 3d 49 1d 77 bd 28 39 36 3f
       0.89961463 0.073647514 -0.060330663 0.71180964
000090 fa 12 e5 be a6 2a 77 bd ee 65 86 bd df 9d 28 3f
       -0.4474104 -0.060343407 -0.0656241 0.6586589
0000a0 d1 c9 4b 3f 36 65 61 3e b8 f3 16 3c 02 f0 89 3e
       0.7960482 0.22011265 0.0092133805 0.26940924
0000b0 bd 2c 98 be 6f 87 17 3e be 93 aa bc 08 fa 7e 3e
       -0.29721633 0.14797758 -0.020822402 0.24900067
0000c0 06 40 a5 be c1 b0 66 bf f3 f8 25 bd 6c 25 ac 3d
       -0.32275409 -0.90113455 -0.04052062 0.08405575
0000d0 fa c3 fc bb 83 74 28 bf c3 42 e5 bc f5 46 b3 3d
       -0.007713792 -0.6580278 -0.027985936 0.08753768
0000e0 28 7d ae be c1 79 42 bf 02 4f 34 bb 40 17 2e be
       -0.34079862 -0.7596703 -0.0027512913 -0.17001057
0000f0 57 4b 45 3f 38 3b f3 be b5 81 89 bc 29 fb 84 be
       0.77068084 -0.47506118 -0.016785482 -0.2597287
000100 ad a7 10 be 0f 7d 52 bf 5d 04 2f be 0d e6 84 be
       -0.14126463 -0.82222074 -0.17091508 -0.25956765
000110 79 90 b7 3f 9f a5 9e be bd 2f 69 bd bc 1f 66 be
       1.4340965 -0.30985734 -0.056930292 -0.22473043
000120 bc 35 b0 3f 83 21 e5 be 32 98 0e be e1 0a 72 be
       1.3766398 -0.4475213 -0.13925245 -0.23636962
000130 b1 42 02 be 64 70 bf bf 3c 17 15 be a4 82 e2 bd
       -0.12720753 -1.4956174 -0.14559644 -0.11060074
000140 72 7b 6f 3f d5 fd a3 be c7 7d 11 3d 9a d3 0e be
       0.9354774 -0.32029596 0.03552034 -0.13947907
000150 2e 6f e5 3d 68 5a ca bf 6b 19 39 3c 79 1a 43 be
       0.112028465 -1.580884 0.011297564 -0.19053067
000160 ac a9 c4 3f 22 b2 9d be e0 aa 9e 3e a6 dc 4a be
       1.536428 -0.30799967 0.30989742 -0.19810733
000170 99 c0 86 3e ff d4 84 bf 93 06 76 3e b4 6d 89 be
       0.26318815 -1.0377501 0.24025945 -0.2684151
000180 2d fc 17 3f 06 4f ba 3f b8 54 31 bc ef 14 b6 3e
       0.59369165 1.4555366 -0.010823421 0.35562846
000190 ef c0 71 3e fc 0d 89 3e 5d ec 8f 3d 1b 06 e7 3e
       0.23608755 0.26768482 0.070275046 0.45121846
0001a0 af a6 14 3f 09 09 c2 3f 44 e3 2d 3d b1 d5 fc 3e
       0.5806684 1.5159007 0.042453066 0.49381784
0001b0 e1 78 5c be 2d a4 f8 3e 02 01 c6 bc 32 9d ee 3e
       -0.21530487 0.48562756 -0.024170402 0.46604306
0001c0 45 1d e1 3e 68 89 b5 3f 97 76 2d be 01 0a a3 be
       0.43967643 1.4182558 -0.1693977 -0.3184357
0001d0 9b fb 27 bf 4f 91 6a 3f 04 2a f0 bd fc 8b 63 be
       -0.65618294 0.91627973 -0.11726764 -0.22221369
0001e0 7f 3a 5b 3f 47 48 12 3f 83 77 35 be e2 79 36 be
       0.8563613 0.57141536 -0.17721371 -0.17819932
0001f0 c6 44 3a be ff d2 e9 be 2f c0 51 be 7e 0b 8a be
       -0.18190297 -0.4566879 -0.20483468 -0.26961893
000200 1a 66 b3 3f c1 7f e0 3e 47 4e 35 3e 37 2a 33 3e
       1.4015534 0.43847468 0.17705642 0.17496572
000210 81 bd 1b 3f ff 4c 28 bf 9a 3c 26 3e 42 60 95 3e
       0.60836035 -0.65742487 0.16234055 0.29175
000220 56 10 cf 3f 67 13 1c 3f c8 77 d0 3d 76 71 73 3f
       1.617686 0.60967106 0.101790965 0.95095
000230 99 e4 64 3f 3e 96 08 3f 40 2f a6 3a 82 68 71 3f
       0.8941131 0.5335425 0.0012678877 0.9430009
000240 e8 b6 80 3f 49 52 f3 be 31 39 03 3e dd 87 a4 3e
       1.0055819 -0.47523716 0.12814786 0.32134905
000250 6b 3f 9c bf 51 da 91 be ef f7 79 3c 9f 09 b1 3e
       -1.2206854 -0.28486875 0.015256866 0.34577653
000260 a4 93 76 3f da 39 46 be 8a 6a 75 bc 9f 78 d0 3c
       0.9631903 -0.19358006 -0.014979014 0.025448142
000270 74 6d f1 3e d5 d2 60 bf b7 1a be bd e7 d6 76 3d
       0.4715382 -0.87821704 -0.09282439 0.06026354
000280 14 aa 30 3f 7e 87 8a be 4d 5f 53 bd a7 c1 19 3d
       0.6900952 -0.27056497 -0.051604558 0.037538197
000290 2c 38 e5 3f a0 18 0f 3f 3c 9b 12 3c 75 10 ee bc
       1.7907767 0.5589695 0.008948144 -0.029060582
0002a0 96 3f 82 3f b7 9b 8a bf 4b 60 5e 3d 87 03 93 3d
       1.0175655 -1.082877 0.05429105 0.07178407
0002b0 dd b8 2b bf 93 07 09 be c0 bd 59 bd ac 3a f8 3d
       -0.67078954 -0.13381796 -0.053159475 0.12120566
0002c0 b6 4b 81 3f 0f 9e 8f bf d8 cb 62 3d 25 c1 4c 3d
       1.010123 -1.1220111 0.05537018 0.049988884
0002d0 c8 11 68 bf 84 7f 43 3e 07 bd b9 3d 94 00 17 3e
       -0.9065213 0.19091612 0.09069257 0.14746314
0002e0 6c 5e 6d 3f 5d c4 89 bf 2c 29 03 3d f0 37 a0 bd
       0.927222 -1.076305 0.032021686 -0.07823169
0002f0 ef e9 6e bf bf c3 21 3e 02 db be bd c5 f8 3b be
       -0.93325704 0.15797327 -0.09319116 -0.18356617
000300 c6 9e 95 3e 62 e2 e5 bf d9 85 19 bc 8e 14 ab 3e
       0.29222697 -1.7959712 -0.009370291 0.3341412
000310 fb 91 a8 3e 14 ee 0d 3f 79 29 30 ba 41 65 74 3e
       0.32923874 0.55441403 -0.0006720047 0.2386675
000320 07 fb d4 3e de 12 d8 bf 5f fa 7e 3d c7 5a af 3e
       0.4159777 -1.6880758 0.06225049 0.34248945
000330 66 79 35 be 34 3c 08 be f4 5f e6 3d aa f1 ca 3e
       -0.17722091 -0.13304216 0.1124877 0.396375
000340 72 d6 07 3f ee 68 d6 bf c9 e1 13 be 52 e2 db 3d
       0.5306159 -1.6750772 -0.14441599 0.107365265
000350 10 89 c1 be c9 01 b0 bf 81 13 b0 bd 59 af 00 3d
       -0.37799883 -1.3750545 -0.0859747 0.031417225
000360 70 9e 2b 3e 16 25 99 bf 38 51 c0 bd 03 48 97 3e
       0.16759658 -1.1964443 -0.09390491 0.29547128
000370 53 26 56 be 38 d4 9b be ae 2d 56 bd a1 06 8d 3e
       -0.20913057 -0.30435348 -0.052289657 0.2754412
000380 c0 ae bd 3e 81 7d 8c bf 3c 8d 17 3e 71 b5 aa 3e
       0.37047386 -1.0975801 0.1479997 0.33341554
000390 65 4f 2c 3e a9 31 0c be 77 63 04 3d f0 5f ab 3e
       0.16827162 -0.13690819 0.03232142 0.33471632
0003a0 32 28 10 3f 8f a1 81 bf 3f 6b 7a 3e e3 43 0e 3e
       0.56311333 -1.0127429 0.24454974 0.13893084
0003b0 76 7a d5 3e ab bb 88 bd 46 73 38 3e fd 7e a9 3d
       0.41694993 -0.0667642 0.18012723 0.08276174
0003c0 a4 37 10 3e e3 4b 27 3f 73 ad ee bd 85 e8 3a bc
       0.14083725 0.6535017 -0.116541766 -0.011407976
0003d0 cc d1 a1 3f d0 34 16 3f 55 a0 e5 bd 84 3c 92 3c
       1.264215 0.58674335 -0.112122215 0.017851122
0003e0 10 38 d7 3d 40 e2 42 3f e3 eb fa bd ef 23 3d 3e
       0.1050874 0.7612648 -0.12252023 0.18470739
0003f0 3a 62 85 3f 00 6d 55 be d8 b0 78 be 20 bc ba 3d
       1.0420601 -0.20842361 -0.2428621 0.09117913

fc1.bias f4 [200]
000000 32 1d f4 be 08 0d e1 bd f1 9b 8f be 96 1f 90 bf
       -0.47678524 -0.10988814 -0.2804866 -1.1259639
000010 37 9d 0b bf b9 3b b6 bf 06 f3 a2 bf e8 bd 6d 3e
       -0.54536766 -1.4236976 -1.2730415 0.23216975
000020 db 14 90 3f 13 30 45 bf f1 97 d2 be 74 85 be 3e
       1.1256365 -0.7702648 -0.41131547 0.37211192
000030 4e 2a c1 be 10 4c cf 3f d6 b6 3e bd 6e 46 55 3d
       -0.37727588 1.6195087 -0.046561085 0.05206912
000040 70 1c ae 3d e5 6f 69 3f e9 4a 1b bf 9a ff 5f bf
       0.08501518 0.9118636 -0.6066118 -0.8749939
000050 99 70 d8 bc 67 25 e0 bd ad 9e d1 be 78 4a 8a bf
       -0.026420878 -0.10944634 -0.40941373 -1.0803976
000060 c2 fe 89 bd d8 7c e4 3e e3 93 8c be 06 7a 41 be
       -0.06738044 0.44626498 -0.2745658 -0.18894204
000070 0a 4a 3a bf 98 e9 d7 bd bf 10 4b be 18 2b 79 3d
       -0.72769225 -0.10542601 -0.19830607 0.060832113
000080 cb 31 0f 3f 58 42 8c bf a7 94 08 3f a8 17 78 be
       0.55935353 -1.0957747 0.53351825 -0.24227774
000090 25 28 c1 3e ad 9f 0b be d1 28 00 3f c7 d4 4a 3d
       0.3772594 -0.1363513 0.5006228 0.049519327
0000a0 cc 76 d4 3e d6 35 26 bf 3d 7e 9f 3f ce f7 d9 bd
       0.41496885 -0.649259 1.24604 -0.10642968
0000b0 26 49 e8 be 68 78 88 bf f6 dc 6e bd 5c ca 82 bd
       -0.45368308 -1.0661745 -0.058316194 -0.06386253
0000c0 a1 f5 0c 3d 91 e7 0f be 8e b9 c5 3e ca 96 c8 3f
       0.034413937 -0.1405318 0.3861813 1.5671017
0000d0 fa bb db be 30 2a fe 3b 29 76 06 3e 66 5f 76 bf
       -0.42916852 0.007756494 0.13131012 -0.96239316
0000e0 ef ea fd be f2 8f d3 3e 34 92 84 bf 14 ef 6a bf
       -0.49593303 0.4132076 -1.0357118 -0.91771054
0000f0 5a 2f 14 3f 64 65 87 be a8 f9 4c 3e 8b ef 4e bf
       0.5788475 -0.26444542 0.20017111 -0.80834264
000100 85 18 44 bf 69 c8 20 bf ab 41 0e bf 3f 49 14 bf
       -0.76599914 -0.628058 -0.5556895 -0.57924265
000110 7e a6 9a be f3 e5 2f bf 7a e8 1a bf 38 ac 66 be
       -0.30205148 -0.6871025 -0.6051098 -0.22526634
000120 0e 65 6c 3f 76 34 38 3e 72 48 0a 3e a9 d2 33 bd
       0.923417 0.17988762 0.13504198 -0.043902073
000130 cc 37 70 3e e7 42 e1 be 06 7d db be 38 6d a0 3e
       0.23458785 -0.43996355 -0.42868823 0.31333327
000140 a2 4d 5f bd 54 e2 30 bf 68 a7 ba bf b6 6c ea bf
       -0.054517396 -0.6909535 -1.4582338 -1.8314426
000150 9f 4b ce 3e f9 58 db 3e 59 ca 47 bf ff b2 c6 bd
       0.4029207 0.42841318 -0.78043133 -0.097021095
000160 af 6e 08 3f d3 3f 8b 3f 9b f4 78 bf f1 5e e4 bf
       0.5329389 1.0878853 -0.9724824 -1.7841474
000170 41 3d 28 bf d4 de e4 bd 33 9c d2 be 6a dc 45 bf
       -0.65718466 -0.111753136 -0.41134796 -0.7728945
000180 fa b9 30 bd d5 0d 05 bf 20 9e 06 3f 0c 78 27 3f
       -0.04314611 -0.5197423 0.5258503 0.6541755
000190 ad 69 4f bd 80 d5 7d bf d0 f3 7f 3f b3 2c c0 be
       -0.05063789 -0.991539 0.99981403 -0.37534103
0001a0 87 bc dc be 15 a1 bd 3d 32 07 f2 3e 66 8c c4 3d
       -0.43112585 0.092592396 0.47271115 0.095970914
0001b0 cd c8 49 bf 8d 33 3d bf 42 3d 60 bf d8 5b 87 be
       -0.7882202 -0.73906785 -0.8759347 -0.2643726
0001c0 9b e4 52 be 95 96 84 bd c4 af 05 3f f8 b8 8f be
       -0.20595019 -0.06474034 0.5222132 -0.28070807
0001d0 22 6b f8 3b ce e7 e1 be 5c 11 1e bf f0 76 24 be
       0.0075811306 -0.44122165 -0.6174524 -0.16060996
0001e0 87 1a 2b 3e 54 5a 48 bf 29 4d f7 bd 9c 62 cd be
       0.16709338 -0.7826283 -0.12075264 -0.40114295
0001f0 fa c0 dc 3d ba 23 59 be e0 bd 65 be 96 e0 89 be
       0.10778995 -0.21205035 -0.22435713 -0.26929158
000200 a3 b8 78 3e 16 e2 75 be 29 22 a4 bf d0 40 51 bf
       0.24289183 -0.24012026 -1.2822925 -0.8173952
000210 49 1a 0e bf c0 05 83 3c 6e 69 e0 be 90 74 0d bf
       -0.5550886 0.015993953 -0.43830436 -0.55255985
000220 e5 e5 9d bf a7 10 1d bf bb 1e 93 bf 10 98 6f 3f
       -1.2335783 -0.61353534 -1.1493753 0.93591404
000230 84 25 8d be bf 1c 8e bf 49 ca 91 3e 1f 02 12 3f
       -0.27567685 -1.1102523 0.28474644 0.57034487
000240 bf 14 a8 3e 43 bb e5 3e 6e 1e d0 be 93 bb b0 be
       0.32828328 0.44869432 -0.40648216 -0.34518108
000250 14 19 8c bf 46 a9 f1 bd 70 e5 3c 3f 4f 93 d6 be
       -1.0945153 -0.117998645 0.73787594 -0.41909263
000260 f5 24 b1 be 42 69 6d 3e 74 e7 2e bf 75 74 e6 bd
       -0.34598508 0.23184684 -0.6832192 -0.11252681
000270 cf b6 16 3f 74 6d f6 be 04 cc aa be af cf ce bf
       0.58872694 -0.4813038 -0.33358777 -1.615713
000280 6a 88 2d bf 55 8b ad bf a3 db 28 bf 72 ea 10 3c
       -0.67786276 -1.3558146 -0.6596014 0.008844959
000290 54 14 a1 be 4f 8f ce be 7e 5b 6d 3e c4 62 10 3f
       -0.31460822 -0.4034371 0.23179433 0.56400704
0002a0 59 ce 06 3e cd ed 8b 3e 4f f0 17 bf ad 01 0e 3f
       0.13164653 0.27329865 -0.59351057 0.5547131
0002b0 d0 d1 21 3d d0 bb 26 bf b4 be b7 3e 00 bb 59 be
       0.039506733 -0.6513033 0.35887682 -0.21262741
0002c0 87 02 bf bf 61 a0 3b 3f 43 da e4 3d 34 f1 96 bf
       -1.4922646 0.73291594 0.111744426 -1.1792359
0002d0 e9 0e 47 3e b2 a4 8c bf d9 72 1f bf a5 96 14 3f
       0.19439282 -1.0987761 -0.6228462 0.58042365
0002e0 9c da 72 3f 9b 28 2f 3f a1 e8 1b bf fc 34 97 bf
       0.9486482 0.68421334 -0.6090184 -1.1813045
0002f0 ec b9 81 3f d1 a9 46 bf 07 9f 54 bf 76 d1 0b bf
       1.0134864 -0.7760287 -0.83055156 -0.5461649
000300 09 56 09 3f 10 1c 0e bf 72 cb 57 bf 21 cd 51 bf
       0.53646904 -0.5551157 -0.8429481 -0.81953627
000310 ae 30 f7 bd 22 45 07 be cc b4 18 bd 2c 1c d9 be
       -0.12069832 -0.13209966 -0.037281796 -0.42404306

fc2.weight f4 [150, 200]
000000 8a 2e a1 bd 2f 5a 87 3f 14 99 9b 3e 07 9c 17 3f
       -0.07870205 1.0574397 0.30390227 0.59222454
000010 60 a6 85 be 6c e4 3c 3e 30 8f 39 3f dd 05 09 3f
       -0.26103497 0.18446511 0.7248411 0.5352457
000020 71 20 f3 bd dd c9 94 3c ec 45 83 3d 50 47 f0 bd
       -0.11871422 0.018162662 0.06409821 -0.11732352
000030 5f 0a 20 3e 14 8e a5 bf b8 24 03 be cc a3 1a 3e
       0.15628956 -1.2933984 -0.12806976 0.15101546
000040 c4 45 8c be 2f 4f 07 bf 0d 92 ea 3e c8 88 19 3f
       -0.27396977 -0.528552 0.45814553 0.59974337
000050 af f8 67 3e e6 6a 43 3d 19 18 45 be f1 0a ea be
       0.22653459 0.04770937 -0.19247474 -0.45711473
000060 6e 04 a9 be ba 83 84 3e 57 3e 9a 3d 82 4e c8 3f
       -0.33011192 0.2588175 0.07531422 1.5648959
000070 a4 8d c8 be 82 11 ff be 76 f9 b8 3d 27 e8 e8 be
       -0.39170563 -0.49818045 0.09031956 -0.45489618
000080 70 f9 27 bf c1 44 fa be e7 f9 58 be 7e 63 25 be
       -0.65614986 -0.4888058 -0.2118908 -0.16151235
000090 71 8e 8b 3d 46 6c 69 3e ca e6 a8 be c3 be ea bd
       0.06814278 0.2279521 -0.32988578 -0.11462166
0000a0 59 35 e1 be 78 01 1e bd 47 62 3d bf aa b0 60 3e
       -0.43986014 -0.03857562 -0.73978084 0.21942392
0000b0 33 05 59 bf a2 44 b9 be b9 ef f0 3e 65 e0 5f bf
       -0.8477356 -0.36185175 0.47057894 -0.87451774
0000c0 a9 d5 75 be 65 ba 2b 3f 6d eb 5f be f5 41 42 bf
       -0.24007286 0.6708129 -0.21867152 -0.7588189
0000d0 6a 3c 84 bf b1 fb 4b 3e 74 dd 70 bd 4d 1d 01 be
       -1.0330937 0.19920231 -0.058804944 -0.12608834
0000e0 2a 13 a4 3e bd 20 08 be 34 e5 06 3f 6f 6d 8d bd
       0.3204587 -0.13293739 0.52693486 -0.069056384
0000f0 b9 aa c8 be ee 11 b1 bd 9c 76 13 bf 28 5c 41 3e
       -0.3919275 -0.08645998 -0.5760286 0.18882811
000100 42 61 aa bd 68 08 84 bc 45 99 13 3f 79 e0 e2 3e
       -0.08319332 -0.01611729 0.57655746 0.44311884
000110 a3 4d 85 be c2 cc c4 be e3 1d 91 3e e0 38 7d 3d
       -0.26035795 -0.38437468 0.28343114 0.06182182
000120 b9 72 0b bf ab 3e 4e 3e b8 c4 05 bf 60 0c 29 be
       -0.5447193 0.20141093 -0.52253294 -0.16508627
000130 3c e6 ea be 77 1c 64 be fe d7 d7 3e 91 f2 e2 be
       -0.4587878 -0.22276483 0.42156976 -0.44325688
000140 ea 90 cf bd 07 4c 6a 3e d4 e6 5e 3e cd 5b 4e 3f
       -0.10135062 0.22880565 0.21767741 0.80608827
000150 01 0d 85 bf ba 26 80 3f 12 a8 26 3e 82 67 4a 3d
       -1.0394593 1.0011818 0.16275051 0.04941512
000160 db a6 9a be 53 6f 58 3e 27 e4 c2 be d1 9d 5e 3f
       -0.30205426 0.21136217 -0.3806469 0.8695956
000170 a6 e3 8d bf 06 bb 40 3d df b9 4e 3e 2d 25 83 3e
       -1.1085098 0.04705336 0.20188092 0.256143
000180 1b 45 3b 3e a2 19 a3 be 78 bb 98 be fc 28 89 3e
       0.1828808 -0.31855494 -0.29830527 0.2678908
000190 27 19 c4 be cd d9 b2 3e a1 f2 32 bf 4d 9d 8b bd
       -0.3830044 0.34931794 -0.6990147 -0.06817112
0001a0 bf 4c ef 3b 27 01 0b bd 3d 02 90 be 3e 20 53 bf
       0.00730285 -0.033936646 -0.28126708 -0.8247107
0001b0 3e 88 70 be d7 7b 3f 3f bc 56 65 3e 0d ed db be
       -0.23489472 0.7479834 0.22396368 -0.42954293
0001c0 5f fb 10 3f 35 3b b4 be 21 09 13 3e 22 29 d5 bd
       0.5663356 -0.3520142 0.14358951 -0.10408236
0001d0 a5 a1 c6 3d 6e ce 2b be 4e 36 a8 3e 5a 41 c4 bc
       0.096988 -0.16777965 0.3285393 -0.023956943
0001e0 15 0a 5a 3e c9 2c 0f 3e 70 d6 81 be b6 aa 2e be
       0.21292908 0.13981928 -0.25358915 -0.17057309
0001f0 c5 2e 03 3f 4e 2e 07 3e 41 35 c4 3e 70 08 e5 bd
       0.5124324 0.13201258 0.3832188 -0.1118325
000200 ca a1 d9 3e fa 9e 94 be e0 18 45 3f ae 7c 53 3e
       0.42506248 -0.2902754 0.7699108 0.2065303
000210 77 bb 8a bd bd cb 39 3f 82 c1 b1 3d 05 25 7e 3d
       -0.06774037 0.72576505 0.08679487 0.062047023
000220 a6 71 73 3f 42 dd 8c 3e f7 22 a0 3f 3a 57 f1 be
       0.9509529 0.27512556 1.251067 -0.4713686
000230 4d 36 00 be be 72 15 bd 0b 18 2a 3e bd 86 e0 be
       -0.12520714 -0.03648638 0.16610734 -0.43852797
000240 8c a9 09 be 47 88 92 be b0 b0 97 be e1 b5 1b bf
       -0.13443583 -0.28619596 -0.2962699 -0.608244
000250 6c f8 ea 3e 33 fc ae 3e fc f6 d8 bd 7f 09 a1 be
       0.45892656 0.34176788 -0.105939835 -0.31452557
000260 54 bb 3e 3e cd 7e 13 be 79 25 ee be 55 b4 60 3f
       0.18626148 -0.1440384 -0.46512964 0.87775165
000270 c0 fa 14 bd df df 91 3d c8 ec ff bb 2d 14 ac be
       -0.036371946 0.07122778 -0.007810209 -0.33609143
000280 dd d2 b7 3e 4e 93 03 be 91 60 10 bf a4 09 e3 be
       0.35903063 -0.12849161 -0.5639735 -0.44343293
000290 6c c3 6b 3f d2 34 a6 3e 9c 52 52 bf e0 b6 71 be
       0.92095065 0.32462174 -0.821573 -0.23604918
0002a0 b5 ab 16 be 88 71 ed 3a 31 f6 bf 3f 04 67 98 be
       -0.14713939 0.00181155 1.4997007 -0.29766095
0002b0 27 83 a1 bd 0f 72 0e 3f f5 74 95 3e 2c 26 f2 3e
       -0.078863434 0.5564279 0.29190794 0.47294748
0002c0 cc 6d dc 3e c1 b4 43 bf 84 a7 b9 be 63 b5 27 3f
       0.43052518 -0.76447684 -0.36260617 0.6551115
0002d0 73 47 91 3f b3 97 15 3e 4c e4 17 3d 89 8d ca be
       1.134993 0.1460865 0.037082955 -0.39561108
0002e0 7c dd 13 be 98 e2 0b bf 12 96 a4 bd ee bd 1f 3f
       -0.14439958 -0.5464263 -0.08036436 0.62399185
0002f0 c7 77 a0 be fd f8 11 3f d7 73 10 3f f5 27 99 3d
       -0.31341383 0.5702055 0.5642676 0.07478324
000300 c4 c8 cb 3d 92 2b 21 3f b0 39 1d be 14 c2 14 bd
       0.099504024 0.6295711 -0.15354037 -0.0363179
000310 76 03 98 3e ed 02 b0 3e 00 fb 1c 3f bf 82 b2 3e
       0.2969014 0.34377232 0.61320496 0.34865376
000320 46 22 1e be 9a e6 30 bc c2 09 ea 3d d9 ea 78 be
       -0.15442762 -0.010797167 0.114276424 -0.24308337
000330 92 3b 96 3e 7b ce fc bb 57 43 c9 be 42 72 55 bd
       0.29342324 -0.007715044 -0.3930919 -0.052110918
000340 76 4d 4a be 30 bc 8e bd 50 0e 0e bc 6a cf f3 be
       -0.19756112 -0.06969488 -0.008670405 -0.47619182
000350 c0 f1 87 3d fc 2a 77 be 7c 51 95 be b1 94 0c 3e
       0.06637907 -0.24137491 -0.2916373 0.13728596
000360 9f 6e ab bc 47 ba 96 be ad 5b 51 be 12 7b 27 3d
       -0.020926772 -0.29438993 -0.20445128 0.040888853
000370 3b 74 9f be 1d 6f 5b 3e c1 40 6e 3e 8a df 93 bd
       -0.31143364 0.21429105 0.23266889 -0.07220371
000380 f5 93 c3 3c 34 cf c8 be 55 4d 12 be ff f2 5a bc
       0.023874262 -0.39220583 -0.14287312 -0.013363599
000390 3e a8 17 bf fa bc 91 be 8b 22 f3 be 78 19 65 be
       -0.5924109 -0.2846449 -0.47487292 -0.22372997
0003a0 c6 6f 6d bd e2 43 01 bd d9 65 3a 3e 95 de 4e be
       -0.057967924 -0.03155888 0.18202914 -0.20202096
0003b0 a5 3a af 3d be 59 b3 3d f5 99 88 be 2a 8c cf bd
       0.085561074 0.08757351 -0.2667996 -0.10134156
0003c0 f2 f3 f6 3d 88 12 24 bf 8c ad 47 3d dd 7c e9 3d
       0.120582476 -0.64090776 0.04874949 0.11400769
0003d0 22 bd 23 bd fc 96 00 be f5 19 7a bf 9b 00 fa bd
       -0.039975293 -0.12557596 -0.9769586 -0.12207147
0003e0 6a d7 ba 3d d4 82 c8 3d af ee 29 be 2d 7e 90 bd
       0.09123118 0.097905785 -0.16594957 -0.07055316
0003f0 3b 9b 1a bf e1 e4 3a bd 6b 3b 72 be f9 89 b3 be
       -0.6039311 -0.045628432 -0.23655479 -0.35066202

fc2.bias f4 [150]
000000 22 18 0d c0 2b 23 cd be 96 d9 ab bd 37 ba cb bf
       -2.204598 -0.40065894 -0.083911106 -1.5916203
000010 57 3c 80 be 9e 35 13 bf 86 08 52 bf 33 68 d3 be
       -0.25046036 -0.5750369 -0.82044256 -0.41290435
000020 92 18 cc 3e ba 39 be be fc 1d dd be 14 d5 94 be
       0.39862496 -0.37153417 -0.4318694 -0.29068816
000030 ba fe e2 be 59 1b 96 bd c4 f9 32 be ad de 08 bf
       -0.44334966 -0.07329435 -0.1747809 -0.53464776
000040 52 0b 9c be 7c 5d 4a 3c 34 c3 4d bf 1d 40 39 be
       -0.30477387 0.01235139 -0.8037598 -0.18090864
000050 f9 cd 70 bc 78 9b 62 bf 93 7c 42 bf 28 0a 55 be
       -0.014697545 -0.88518476 -0.75971335 -0.20804656
000060 d4 93 16 3e 47 85 7d be d9 8a 7d be fd 15 16 bc
       0.1470483 -0.24757873 -0.24759997 -0.009160516
000070 80 53 05 bf 58 fb 35 bf 0c 2c 98 3e 7c 17 7a bf
       -0.52080536 -0.71086645 0.29721105 -0.97692084
000080 44 5d 28 be f2 22 de bf 3c bd 6b bd e9 1c 3e bd
       -0.16441828 -1.7354414 -0.057553515 -0.04641429
000090 a0 36 6e 3e 9b 13 09 bf 50 28 e6 bd 87 5f 86 be
       0.23263025 -0.5354554 -0.11238158 -0.26244757
0000a0 0a 21 8d 3d be 6e 41 bf 56 bf d4 be 43 fa 4b 3d
       0.06891067 -0.75559604 -0.41552228 0.049799215
0000b0 1d 06 80 3e f3 22 00 bf 21 0a 0b be 62 06 d9 be
       0.25004664 -0.5005333 -0.13578083 -0.42387682
0000c0 c4 ea ea be f3 fd f4 be f1 bc f9 be 17 ce 0a bf
       -0.45882237 -0.47849998 -0.48776963 -0.5422072
0000d0 33 42 35 bf bd d2 8b 3e f9 52 8e bf 93 dd cd bd
       -0.70804137 0.27309218 -1.1119071 -0.100520276
0000e0 b8 03 88 3e fc ef 4b bf 92 3e fc be 78 0b e4 bc
       0.26565337 -0.7966306 -0.49266487 -0.0278375
0000f0 94 f0 2b be 98 26 0a bf a0 81 20 bd 70 1e b4 be
       -0.16790992 -0.5396514 -0.03918612 -0.35179472
000100 fc d5 65 3d 1b a1 e2 3d 1b 2e ab bc ce 74 ed be
       0.056112275 0.11065885 -0.020896008 -0.46378177
000110 ce 1d 80 bf 51 0a 2e 3d 0f 9d 18 3f 39 2c f1 be
       -1.0009096 0.042490307 0.5961465 -0.47104052
000120 f6 b5 7c be f5 a0 d5 be ff 1a c9 3e 67 f1 cb 3e
       -0.24678788 -0.41724363 0.3927841 0.39832613
000130 cf 6f 18 bf 91 7d dd be 56 e5 22 be de 8d b1 be
       -0.59545606 -0.43259862 -0.15907797 -0.3467855
000140 de 95 d9 be 7b eb ad bf 22 df e3 bd 79 16 d5 be
       -0.42497152 -1.3587488 -0.111265436 -0.41618708
000150 df 98 24 bf a1 7f 80 be be 5c 2f be 71 2f 79 be
       -0.6429576 -0.25097373 -0.17125222 -0.24334504
000160 fd ec 26 c0 ec 96 7a bf 70 f4 36 bd 7c c4 0b 3f
       -2.6082146 -0.9788654 -0.044666708 0.54596686
000170 7b d5 91 bc 02 f0 0e bf bc 21 87 be b9 3c 3c bf
       -0.01780199 -0.5583497 -0.26392925 -0.73530155
000180 0e b3 92 bf 2e 4d b3 be b0 3c 80 bf dd 78 25 bf
       -1.1460893 -0.3501982 -1.001852 -0.6463755
000190 a1 5f df be be 5d 26 bf 8c 15 95 be 99 0c 86 3d
       -0.43627647 -0.6498679 -0.29118 0.065453716
0001a0 89 26 2e 3e 0b 99 65 bf 60 e8 88 be 7a 23 10 bf
       0.17006887 -0.8968665 -0.26739788 -0.5630413
0001b0 f1 e3 9c bf 9f 5a 80 bf bb c9 5f 3d 04 66 93 be
       -1.2257062 -1.0027655 0.054635745 -0.2878877
0001c0 0a a2 8a bd c4 59 25 bf f9 cb cc be f5 6a a1 bd
       -0.06769188 -0.64590096 -0.3999937 -0.078817286
0001d0 0c af e5 bd e8 fc 81 be f2 6c 11 be d1 65 94 3d
       -0.11215028 -0.25388265 -0.14201716 0.072459824
0001e0 2e 65 df be 85 8e 10 bf 79 ab 2c bf 12 d0 6e be
       -0.4363188 -0.5646747 -0.67449147 -0.2332156
0001f0 6c b1 bc 3d 83 7f 7f be cc 97 09 be 2d b6 9e bc
       0.09213528 -0.24950986 -0.13436812 -0.019373978
000200 a6 fc 20 bf 27 10 6b be f8 52 0b bf af 89 30 bf
       -0.6288551 -0.2295538 -0.54423475 -0.6896009
000210 26 2e 21 bd 86 69 74 bf 17 06 bf bd e6 84 45 3c
       -0.03935065 -0.95473516 -0.093273334 0.012055611
000220 ef c5 9f bf 4f e1 f6 3e 35 e5 44 3f e7 77 29 3f
       -1.248228 0.48218772 0.7691224 0.6619858
000230 78 0a 8c be 03 41 c2 be d9 ab 87 be b2 8f 94 3e
       -0.27351737 -0.37940225 -0.26498297 0.2901588
000240 59 55 cd 3e 61 44 5f bd bf 09 5b bf f0 41 89 be
       0.40104178 -0.05450857 -0.85561746 -0.2680812
000250 bd 58 08 bf 9d 85 bc be
       -0.53260404 -0.3682069

fc3.weight f4 [2, 150]
000000 d6 94 d2 3e 42 7b 0e 3f 85 de d4 3b 7a 1c af 3f
       0.41129178 0.55656826 0.006496253 1.3680565
000010 2a 8d aa bd b4 b6 8a bc 28 bf ed 3e 6c b5 04 3e
       -0.08327706 -0.016932823 0.46434903 0.12959832
000020 a9 7c ba 3e 45 ac cd bf 7c 99 ba bd 73 e2 7d 3c
       0.36423233 -1.6068197 -0.09111306 0.015495884
000030 1d 90 17 be 78 d6 fd bd 12 73 cc 3d 44 a5 dc bd
       -0.14801069 -0.12394422 0.099828854 -0.107737094
000040 36 fb 56 bd 18 76 2f 3d f4 3e da bd a8 13 c1 bf
       -0.052485667 0.042837232 -0.106565386 -1.5084124
000050 18 4c ba bd b4 3c f5 3c c7 7f 46 3f 4e 36 c6 3d
       -0.09096545 0.029936172 0.7753872 0.096783265
000060 86 87 c1 bc 8c 72 a6 3d d3 86 cc bd 51 36 99 3d
       -0.023624193 0.08127317 -0.09986653 0.07481063
000070 98 d4 84 bd f9 20 51 bd 7b eb b5 3b b4 33 d5 bc
       -0.064858615 -0.051056836 0.005551753 -0.02602563
000080 9d e5 93 3e fb 2a 1e 3f 49 d8 01 3f ff 6d 82 3e
       0.2888612 0.61784333 0.5072065 0.25474545
000090 9f d4 b0 3c f1 ae 7e bf 0a 92 7e bd 2d f2 e6 3d
       0.02158576 -0.9948569 -0.062150992 0.1127666
0000a0 74 d4 2c 3e 76 43 fc bd 58 27 74 be 75 a2 93 be
       0.1687792 -0.12317555 -0.23843133 -0.28834882
0000b0 5d 6f 2c bf d4 c0 3d bc a9 a0 da bc de 39 c9 3f
       -0.67357427 -0.011581618 -0.026687937 1.5720785
0000c0 e7 46 c7 be cb c9 5b 3e 9b a3 18 3e 56 c2 8f 3e
       -0.38921282 0.21463697 0.1490616 0.28077954
0000d0 c3 f8 c4 3e 3e c6 5d be 1d b7 06 bd e8 e2 7c 3c
       0.3847104 -0.21657655 -0.032889474 0.015434958
0000e0 31 93 fd 3d 9a 23 5f bf 5d 05 f6 bd 10 eb 6a 3e
       0.1238159 -0.871637 -0.12012742 0.22941232
0000f0 f9 81 64 bd 25 37 b9 3e c0 57 7c 3c 3c 8b f0 3c
       -0.055788014 0.36174884 0.015401781 0.029363267
000100 0e 8d 05 3d 6d 5c f8 3b 01 51 00 3e cb 6b 5e bd
       0.032605223 0.0075793774 0.125309 -0.054302018
000110 6f 3a e2 be 41 72 88 3d e5 66 58 bd c2 5c b8 bb
       -0.44185206 0.06662417 -0.052832503 -0.005626292
000120 07 14 c7 3d c9 d5 fd 3d 60 c3 04 be 0a 81 3b be
       0.09720617 0.12394292 -0.12965155 -0.18310943
000130 28 36 4d bd 28 7e 30 3e 77 b0 a8 3d de c5 92 bd
       -0.050100476 0.17235625 0.08236783 -0.071666464
000140 53 52 b0 bc 0a 56 b9 3e ca 84 36 bc fa 77 2a be
       -0.02152363 0.36198455 -0.011140058 -0.1664733
000150 b5 17 e1 3d fa 88 3a 3d a2 d2 82 bc 8f 43 f7 bd
       0.1099085 0.045540787 -0.015969578 -0.12073433
000160 b4 5f a8 3e 60 e6 cd bc 4c 8a 15 3e 9a ba 04 bc
       0.32885516 -0.025134265 0.14603537 -0.00810113
000170 69 30 1c be cb 26 49 bd 8f ae 61 3d 00 41 98 3e
       -0.15252842 -0.04910926 0.055098113 0.2973709
000180 4c 99 97 be 4b 5c f5 bd 16 71 95 3d 8a 90 1a bf
       -0.29609144 -0.11980494 0.0729696 -0.603768
000190 a7 40 c2 3d 29 76 0c 3e 5f 8b eb 3d 72 3b 95 be
       0.09484988 0.1371695 0.11501192 -0.29146916
0001a0 fc cb bb 3d 18 13 0e bf 6e 58 0d 3d 51 4f 08 be
       0.09169766 -0.55497885 0.03450816 -0.13311507
0001b0 c9 fc 7d 3e 86 51 08 be dc 2c af 3d 70 49 39 3f
       0.24803461 -0.13312349 0.08553478 0.7237768
0001c0 01 a2 31 3c ad 66 08 bd 3a 54 ae bd 9e c4 ea bf
       0.010841847 -0.033301044 -0.08512159 -1.8341253
0001d0 ac 51 fd be ea 9c b3 bc 59 85 c3 bd 78 09 c2 3e
       -0.49476373 -0.021925408 -0.095469184 0.3789785
0001e0 05 3a 59 3f 67 6c a9 bc 61 a3 75 be 16 5e 3f bd
       0.84854156 -0.020681573 -0.23988105 -0.046720587
0001f0 2b 4e 42 3d 2a 57 2d be 2e d6 b0 3f 72 83 13 bc
       0.047437828 -0.16927782 1.3815362 -0.009003507
000200 4b 96 05 be c9 b1 78 bd e5 03 3c 3d df 25 56 be
       -0.13045613 -0.060716424 0.04590215 -0.20912884
000210 04 fd be 3b 84 69 2c be 39 62 f1 be 93 2f 62 3f
       0.0058285017 -0.16837126 -0.4714525 0.8835384
000220 56 27 02 be 70 20 fc 3b b2 3e 8d ba 7b 40 82 3d
       -0.12710318 0.0076942965 -0.0010776131 0.06359955
000230 b7 08 03 bf 79 d2 06 3f df fe 18 3e ad d8 2c 3d
       -0.5118517 0.52664906 0.14940976 0.042198826
000240 a3 fd 75 3d be a9 b6 3e 46 52 95 bd 6f ad 05 3f
       0.06005634 0.35676378 -0.07291083 0.52217764
000250 c5 15 90 be 62 0e 81 be b9 30 91 be 34 98 8d be
       -0.2814161 -0.25206286 -0.28357485 -0.27655184
000260 42 d1 0e 3d 28 af 3d 3c 8d 3c 24 be bf 01 8d 3f
       0.034867533 0.011577405 -0.16038723 1.1016158
000270 49 02 bb be bc 89 26 bf 96 85 81 3e 4a 9d 11 3f
       -0.3652518 -0.65053916 0.2529723 0.5688063
000280 55 20 e7 be 48 db cd 3c ff 8f d9 bd 38 84 47 be
       -0.45141855 0.025128976 -0.10623168 -0.19484031
000290 fe de 2c be 34 5e b0 3d 7f de d6 3e 7d c6 1c 3f
       -0.1688194 0.08611718 0.41966626 0.6124037
0002a0 0b 9c 33 3f fa e2 93 be 8e 7e 41 3c d5 66 8a bf
       0.7015998 -0.28884107 0.011809958 -1.0812632
0002b0 94 10 70 bf 03 e9 88 3e cf 8f b5 be 19 42 26 3f
       -0.93775296 0.26740274 -0.3546128 0.64944607
0002c0 69 b3 ee 3e ee 1b d4 3e 47 39 36 bf 50 77 ce 3e
       0.46621254 0.4142756 -0.7118115 0.40325403
0002d0 b8 37 30 bf 86 b9 48 3f 03 83 9d 3e 12 c7 33 bd
       -0.6883502 0.78408086 0.30764017 -0.04389102
0002e0 dc 0c 52 be 13 2a d0 3e 31 67 20 bf c4 26 ad 3f
       -0.20512718 0.406571 -0.6265746 1.3527455
0002f0 0b fe 9d 3d 65 96 f5 be 71 61 dd 3e 64 7c e4 3e
       0.077144705 -0.47966304 0.43238404 0.44626153
000300 88 d8 90 3e b9 6a 05 3f e1 2c 17 bd 16 47 4c 3f
       0.282902 0.5211597 -0.036908034 0.7979597
000310 98 17 a2 3e b3 bb b1 bf 28 78 6c be 89 a8 e6 3d
       0.31658626 -1.3885406 -0.23092711 0.11262614
000320 8a 25 1e be 0c dc c7 bd e2 b5 7c bf 52 84 3d 3e
       -0.15444008 -0.097587675 -0.9871503 0.18507507
000330 9e d6 4d 3f 0d 44 58 3a d2 b4 bb bf c7 76 0e 40
       0.80405605 0.00082498865 -1.4664557 2.2259996
000340 64 51 9a 3e 7e 40 6e be f1 6f c3 bd 8a 4b d4 3c
       0.3014022 -0.2326679 -0.095428355 0.025914926
000350 e0 c0 6b 3f 79 db 85 bf 45 f3 07 bf 96 6b 4e 3f
       0.9209118 -1.0457603 -0.53105575 0.80632913
000360 1f 42 bd 3e 35 e7 50 3f 2d 88 b2 3f ba 5e 3e bf
       0.3696451 0.81602794 1.3947808 -0.7436329
000370 33 8e 7c bf 36 97 4a 3f f2 cb 3f bf d7 82 36 3f
       -0.9865448 0.7913698 -0.7492057 0.71293396
000380 94 ac 20 bf bd f9 92 3e 85 9f 23 bf 7e 63 81 3e
       -0.62763333 0.2870616 -0.6391528 0.2527122
000390 b9 6a 56 3e 8a 8d fc bd 80 ad d1 be cd 4d 1a 40
       0.20939149 -0.12331684 -0.40952682 2.4109986
0003a0 0b 6d 8c 3d 6e ae 8a 3e d2 3f 74 3e 6c 98 77 bd
       0.06856736 0.27086204 0.2385247 -0.060448095
0003b0 de d2 7b bb 51 50 56 3c 02 b1 9c bf 91 27 7f bf
       -0.0038425247 0.013080672 -1.2241518 -0.9966975
0003c0 3e d5 4a 3e 0a be 0a bf f7 2e d5 bd 15 6e e7 3e
       0.19807908 -0.54196227 -0.104093485 0.45201173
0003d0 10 4a e0 3d 6e 7c e9 be 84 51 ba 3d 80 a9 ff bc
       0.10951626 -0.45602745 0.09097579 -0.031208754
0003e0 7b 3c 04 3e fa 71 a0 3f ec d7 bf 3e 56 33 71 bf
       0.12913696 1.2534783 0.37469423 -0.9421896
0003f0 72 10 37 bd 66 59 5c 3d a7 45 d2 bd f7 0a a2 bf
       -0.044693418 0.053796194 -0.102671914 -1.2659596

fc3.bias f4 [2]
000000 18 d5 d1 bd 95 bb 61 be
       -0.102457225 -0.22044213
