p3_collab-compet/checkpoint_MA_critic.pth (torch, 526743 bytes, 5 tensors)

fcs1.weight f4 [400, 24]
0.16247788 -0.32859215 -0.040628042 -0.20176776 0.24254753 -0.5553386 -0.034008563 -0.18150233
0.300481 -0.19081376 -0.083427735 -0.15048029 0.08395391 -0.14746208 -0.06982098 -0.09795449
0.39991352 -0.5312267 0.028654844 0.83726513 -0.1034156 -0.39834234 0.0748091 0.81828886
-0.041932646 1.5963286 -0.003221533 0.18524611 -0.18120189 0.36939672 0.010129376 0.23320638
0.042352036 1.938511 -0.043149244 0.0054729907 0.4496798 0.33638635 0.023720806 -0.042092763
0.62288547 1.4897248 -0.0059580947 0.09137491 0.28475922 0.85774 -0.034818992 0.043308165
0.005878361 0.10977796 0.006378673 -0.23988947 -0.2894951 -0.27713898 0.06635617 -0.28169337
0.3227329 0.015634656 0.09254369 0.21912295 -0.009850745 -1.1135513 0.05206086 0.14132395
0.4152113 -0.3067573 -0.042395487 0.63226044 0.7171791 0.58588326 -0.036856435 0.58464706
0.41195193 0.8889438 0.035155613 0.11472924 0.52338123 0.43260995 0.04049022 0.099298246
0.7268417 1.0039127 -0.16273779 0.24281709 0.048214205 0.6946972 -0.09784831 0.26514778
0.8200121 0.7469474 -0.06592845 -0.38872495 0.5151261 -1.1242986 -0.095556736 -0.31292897
0.2094348 -0.3759609 0.0027821562 -0.05441755 0.24151178 0.2659021 -0.044230495 -0.06561984
0.29128695 -0.39543414 -0.051172584 0.15441306 -0.23232025 0.11752958 0.022556745 0.13645399
0.4873631 -0.17680661 0.011517578 0.041778125 -1.0571715 -0.5054585 -0.014067552 0.027672388
0.46812126 1.0965894 -0.008180669 0.03512144 -0.45918432 -0.485013 -0.012157526 0.036156207
0.54043555 0.6815533 -0.045700748 0.043705147 -0.46935222 0.453732 -0.0017329614 -0.01623221
0.682164 0.38462818 -0.024471914 -0.054402784 -0.4221931 1.2431415 -0.022683138 -0.016989555
0.064360365 0.07348984 -0.012227198 -0.049880303 0.2796713 -0.17531492 -0.01765899 -0.053857524
-0.1375792 0.048245654 0.0016578635 0.03697658 0.8454334 -2.1405482 -0.010040356 0.03874228
-0.3420881 -0.29554105 -0.017852297 -0.09459856 -0.29608107 0.67801815 -0.018800935 -0.042639878
1.0281386 0.17631854 0.0329561 -0.18559155 -0.6621086 -0.53717977 0.01689271 -0.18285552
1.0642917 0.39678812 -0.036420282 0.2730889 -0.62786186 -0.48173892 0.04751377 0.2295245
1.5734948 0.5259555 0.0048058694 -0.39085948 -0.70502627 -0.07084373 -0.06175535 -0.34250104
-0.14369053 -1.138176 -0.012457281 0.0058813994 0.72836167 -0.26889467 -0.0075894278 -0.009731969
-0.14803863 -0.72132057 -0.028160844 0.24458428 0.4072069 -0.24417467 -0.0026965789 0.31990612
0.005503077 -0.75874937 -0.07513864 -0.017872505 -0.27399024 -0.083165705 -0.0011412356 -0.005319539
0.06661114 0.91723615 -0.1165196 -0.3340396 0.09894887 -0.53905624 -0.04393869 -0.30565798
0.19399287 0.7372855 -0.08332184 -0.19317427 0.18575928 -0.55024385 -0.10834104 -0.25512618
0.06856538 0.26181242 -0.11088077 -0.17255788 -0.05427841 0.10166395 -0.051326457 -0.20653033
-0.09713565 1.5589604 0.045101084 -0.49770334 -0.18279123 -1.2232554 0.03296018 -0.45463046
0.14452904 0.8112327 -0.040256027 0.45257816 -0.087445684 -3.1194108 -0.092411555 0.43540066
00000000: 9a60 263e 3b3d a8be 9769 26bd 359c 4ebe
00000010: 615e 783e ac2a 0ebf 904c 0bbd bfdb 39be
00000020: a5d8 993e af64 43be 29dc aabd 8117 1abe
00000030: 07f0 ab3d 4d00 17be 4dfe 8ebd 5d9c c8bd
00000040: 77c1 cc3e 79fe 07bf 90bd ea3c 0257 563f
00000050: 8fcb d3bd 87f3 cbbe 8335 993d 617b 513f
00000060: 91c1 2bbd 7f54 cc3f 5b20 53bb 28b1 3d3e
00000070: fd8c 39be 9121 bd3e aff5 253c a7cd 6e3e
00000080: 5479 2d3d 2121 f83f 43bd 30bd c656 b33b
00000090: 6e3c e63e d53a ac3e 2352 c23c 7669 2cbd
000000a0: 6c75 1f3f 4daf be3f 1f3c c3bb c522 bb3d
000000b0: f6cb 913e d994 5b3f 5c9e 0ebd e763 313d
000000c0: 449f c03b 44d3 e03d 3004 d13b 96a5 75be
000000d0: b438 94be 29e5 8dbe bee5 873d 1d3a 90be
000000e0: 3f3d a53e 4014 803c 8c87 bd3d c461 603e
000000f0: 0565 21bc d988 8ebf c53d 553d 3ab7 103e
00000100: 9396 d43e 4b0f 9dbe e4a6 2dbd d2db 213f
00000110: 0d99 373f 72fc 153f c6f6 16bd 6eab 153f
00000120: 5deb d23e d291 633f 55ff 0f3d 2af7 ea3d
00000130: 50fc 053f 0d7f dd3e 13d9 253d e15c cb3d
00000140: 4c12 3a3f 3680 803f bca4 26be 0ba5 783e
00000150: 427c 453d add7 313f b264 c8bd 73c1 873e
00000160: 50ec 513f f237 3f3f 7f05 87bd f506 c7be
00000170: 4edf 033f 04e9 8fbf 40b3 c3bd 3a38 a0be
00000180: 1476 563e f27d c0be d654 363b f0e4 5ebd
00000190: dd4e 773e 5224 883e 092b 35bd b263 86bd
000001a0: 9023 953e 5876 cabe 589a 51bd 751e 1e3e
000001b0: 5ce5 6dbe 59b3 f03d ecc8 b83c 98ba 0b3e
000001c0: a887 f93e cb0c 35be 39b4 3c3c 8a1f 2b3d
000001d0: 6551 87bf ba65 01bf 977b 66bc 34b1 e23c
000001e0: 97ad ef3e 0b5d 8c3f 3608 06bc 80db 0f3d
000001f0: 351a ebbe a053 f8be 5c30 47bc 8818 143d
00000200: fc59 0a3f 477a 2e3f b530 3bbd 2b04 333d
00000210: ef4e f0be 904f e83e 8924 e3ba 69f9 84bc
00000220: 4da2 2e3f fced c43e 5379 c8bc 74d5 5ebd
00000230: b229 d8be 431f 9f3f fdd1 b9bc ae2d 8bbc
00000240: 5ecf 833d d781 963d 9654 48bc 4a4f 4cbd
00000250: 1431 8f3e c185 33be 96a9 90bc b599 5cbd
00000260: 90e1 0cbe 3c9d 453d ab4c d93a c174 173d
00000270: 536e 583f befe 08c0 4e80 24bc 3ab0 1e3d
00000280: 2c26 afbe 2851 97be fb3e 92bc e4bc c1bd
00000290: f097 97be 9992 2d3f 6b04 9abc 27a7 2ebd
000002a0: 0c9a 833f d98c 343e fafc 063d b60b 3ebe
000002b0: f37f 29bf 9d84 09bf 9562 8a3c 7a3e 3bbe
000002c0: b63a 883f d027 cb3e 6f2d 15bd 4fd2 8b3e
000002d0: 8ebb 20bf 7ca6 f6be cd9d 423d 7808 6b3e
000002e0: 4768 c93f 05a5 063f 8e7a 9d3b bc1e c8be
000002f0: 9a7c 34bf 8416 91bd 2ef3 7cbd 4c5c afbe
00000300: 9c23 13be c0af 91bf a019 4cbc c1b8 c03b
00000310: e975 3a3f 90ac 89be bcb0 f8bb d672 1fbc
00000320: 7097 17be 77a8 38bf 92b1 e6bc 4d74 7a3e
00000330: 6c7d d03e ed08 7abe 16b9 30bb bcca a33e
00000340: 2853 b43b 663d 42bf 4ae2 99bd 5c69 92bc
00000350: 7348 8cbe c852 aabd 8395 95ba 874f aebb
00000360: 6c6b 883d fdcf 6a3f d4a1 eebd 3d07 abbe
00000370: b5a5 ca3d 97ff 09bf 0ef9 33bd 347f 9cbe
00000380: 11a6 463e bebe 3c3f a4a4 aabd 7acf 45be
00000390: ae37 3e3e c8dc 0cbf e8e1 ddbd e69f 82be
000003a0: 026c 8c3d 470c 863e 7515 e3bd 03b3 30be
000003b0: 0a53 5ebd 3035 d03d b13b 52bd b07c 53be
000003c0: 0eef c6bd 048c c73f eabb 383d f9d2 febe
000003d0: a02d 3bbe a293 9cbf 4101 073d 53c5 e8be
000003e0: 6cff 133e f2ac 4f3f 81e3 24bd 53b8 e73e
000003f0: b916 b3bd 6da4 47c0 4542 bdbd d6ec de3e

fcs1.bias f4 [400]
0.16756637 0.074149095 -0.2821 -0.3800273 -0.87112075 -1.6744288 -0.15117237 -1.2559245
-0.39757046 -1.6422417 -1.2601832 -0.16674028 0.8055999 -0.3449205 -0.60821885 -1.2059095
-1.3508973 0.121323206 0.2626163 0.799363 -0.88374436 0.5491045 -0.8943247 -2.6675005
-1.1009187 -1.2017354 -0.29657963 0.19216987 0.48246238 -1.6075889 -0.1523981 -0.36546272
-0.0089794025 -1.1330693 -1.1624748 -1.4305525 1.2311496 -0.1335837 -0.8614711 -0.8206187
0.19209877 -0.07850447 -0.15863849 -1.206134 -0.24546814 0.06851914 0.32677907 0.11785828
-0.64911973 -0.40816098 -0.037085816 -1.1780951 0.35603002 0.32760495 -0.80640244 -1.1052504
-1.3876933 0.754411 0.6203212 0.8130535 0.110946134 -0.65502274 -0.628062 -0.4475439
-0.2673657 -1.0162251 0.0996137 -0.6785345 0.14469479 -1.9868944 -0.04906701 -0.66933936
-0.70384073 -0.6321522 -0.54563403 -0.11915281 -0.611789 -2.5215218 -0.078479536 0.23470552
-0.43607277 -0.9831238 -0.17261164 -0.6021007 -0.6204062 -0.08445482 -0.2819327 -0.15481447
-0.60219705 -0.54264843 -1.4223542 0.14286466 -0.6544081 -0.84593415 -1.6914599 -1.0020936
-1.6411964 0.003294295 -0.5600937 -0.037604686 -0.25587308 -1.8246983 -0.4356378 0.585787
0.45787454 0.29089078 0.2618346 -1.3966515 0.10287078 -1.8708243 0.36015996 -0.45115763
-0.094026856 -0.9782425 -0.89717627 0.42944542 -0.9778616 -0.8357385 -0.44928166 0.90791917
-0.78539425 -1.0607982 0.47114417 -0.6324004 -1.3745346 0.07846147 0.2238313 -1.2237016
-0.4918143 0.44257247 0.59543025 -0.26523238 0.06468352 -0.14947706 -0.14672805 0.45102736
-0.13728642 -0.6616126 -0.54423285 -1.671416 -0.33773088 -1.054808 -0.3658018 -1.4549115
-1.3858598 1.1212952 0.36179534 -0.6593951 0.35772502 -1.6808764 -1.0460241 -0.17752528
-0.21339656 -0.26535127 -0.17673914 0.31841463 -0.06260541 -0.115065515 -0.7345146 0.349463
-0.17094414 -0.02388139 0.6365382 -1.4577514 -0.6921133 0.41083336 -1.5644404 -0.6776438
-0.112992115 -0.10360953 -1.5133206 -0.16445301 0.062306847 -0.44701576 0.21273296 0.37375778
-0.5284815 -0.6838797 -1.0249994 -0.28419736 -0.35025412 -0.4043744 -0.68846256 0.08197488
0.3308882 -1.290405 -0.9622041 -1.1988709 -0.5788842 -0.07628707 0.14634316 0.36694598
0.447187 0.6905171 -0.23273057 -0.6068446 -0.49591225 -1.5898753 -0.58924496 -1.2932981
-1.5416306 -1.4524331 -0.7966675 -0.5671404 -0.8916497 -0.47005567 -0.95559984 -0.4369885
0.14558658 -0.57218504 -0.32838798 0.50703317 -0.266553 -1.4684526 -0.56968504 0.30833527
0.21272732 -1.3998843 -0.89100033 0.23924522 -0.73798174 0.25734603 -0.63328046 0.2095373
0.08076621 -0.5336948 -0.007491787 -0.61399287 -0.5451979 -1.3416083 -0.63046485 0.10269194
-0.7500051 -0.52116776 -0.87722325 -0.43538183 -0.39754674 -0.18463778 -0.058838177 0.14809991
0.55040824 0.08188763 -1.1640365 -0.45027348 -0.31783095 -1.0548337 -0.8022598 -0.28602472
-1.0913874 -1.1571764 -1.238632 -1.5421093 0.09948734 0.029966211 -0.32769525 -0.8016563
00000000: 8596 2b3e 7bdb 973d 696f 90be f092 c2be
00000010: c501 5fbf af53 d6bf eecc 1abe 22c2 a0bf
00000020: 5b8e cbbe fa34 d2bf af4d a1bf f7bd 2abe
00000030: cc3b 4e3f 6b99 b0be 3bb4 1bbf 3e5b 9abf
00000040: 34ea acbf 4d78 f83d a575 863e 0ea3 4c3f
00000050: 123d 62bf 1d92 0c3f 77f2 64bf 54b8 2ac0
00000060: e7ea 8cbf 77d2 99bf 49d9 97be 2ec8 443e
00000070: 4f05 f73e 79c5 cdbf 3f0e 1cbe ee1d bbbe
00000080: 581e 13bc 6a08 91bf f9cb 94bf 581c b7bf
00000090: 4f96 9d3f 2aca 08be 5f89 5cbf 1114 52bf
000000a0: 8ab5 443e f4c6 a0bd 2172 22be 9962 9abf
000000b0: 005c 7bbe c353 8c3d 964f a73e af5f f13d
000000c0: b62c 26bf 7afa d0be 4ce7 17bd d2cb 96bf
000000d0: 9149 b63e d6bb a73e 6470 4ebf d878 8dbf
000000e0: ef9f b1bf 1421 413f 5fcd 1e3f 4624 503f
000000f0: ba37 e33d 92af 27bf acc8 20bf 7924 e5be
00000100: 28e4 88be aa13 82bf 4402 cc3d 70b4 2dbf
00000110: df2a 143e 8e52 febf 7dfa 48bd d359 2bbf
00000120: e82e 34bf bad4 21bf acae 0bbf 6306 f4bd
00000130: 349e 1cbf 9d60 21c0 e1b9 a0bd a556 703e
00000140: ee44 dfbe 00ae 7bbf 1bc1 30be 4523 1abf
00000150: f1d2 1ebf a6f6 acbd 7c59 90be af87 1ebe
00000160: 9629 1abf 02eb 0abf b40f b6bf 1d4b 123e
00000170: 4a87 27bf 248f 58bf c281 d8bf 9a44 80bf
00000180: b912 d2bf 19e5 573b 4d62 0fbf 5f07 1abd
00000190: cc01 83be b78f e9bf eb0b dfbe 23f6 153f
000001a0: 886e ea3e a3ef 943e 2f0f 863e 7ac5 b2bf
000001b0: eaad d23d 2c77 efbf e366 b83e 22fe e6be
000001c0: 2791 c0bd 1a6e 7abf 58ad 65bf 45e0 db3e
000001d0: 2355 7abf f5f2 55bf 3f08 e6be 646d 683f
000001e0: 990f 49bf 3cc8 87bf cf39 f13e fee4 21bf
000001f0: c0f0 afbf 68b0 a03d 0834 653e 41a2 9cbf
00000200: 15cf fbbe dc98 e23e 1e6e 183f 8acc 87be
00000210: cb78 843d 8410 19be e13f 16be 0fed e63e
00000220: d094 0cbe 715f 29bf d852 0bbf f6f0 d5bf
00000230: 10eb acbe f303 87bf 604a bbbe 8a3a babf
00000240: db63 b1bf 9a86 8f3f 3d3d b93e 1ece 28bf
00000250: bc27 b73e f526 d7bf 1ee4 85bf 30c9 35be
00000260: a184 5abe 1fdc 87be 1bfb 34be 3e07 a33e
00000270: 4437 80bd 78a7 ebbd 2609 3cbf d0ec b23e
00000280: fb0b 2fbe e8a2 c3bc 2bf4 223f 9997 babf
00000290: 562e 31bf c058 d23e 953f c8bf 107a 2dbf
000002a0: 6968 e7bd 3c31 d4bd 7db4 c1bf 5f66 28be
000002b0: 7735 7f3d 40df e4be abd6 593e 2e5d bf3e
000002c0: 904a 07bf bd12 2fbf 2e33 83bf 5182 91be
000002d0: 8254 b3be 290a cfbe 153f 30bf 72e2 a73d
000002e0: 2e6a a93e fe2b a5bf 0253 76bf 9a74 99bf
000002f0: c131 14bf 653c 9cbd fbda 153e 58e0 bb3e
00000300: b2f5 e43e bbc5 303f ec50 6ebe 2b5a 1bbf
00000310: 36e8 fdbe 0981 cbbf c2d8 16bf cb8a a5bf
00000320: 2754 c5bf 54e9 b9bf 67f2 4bbf 1d30 11bf
00000330: 2843 64bf 23ab f0be 31a2 74bf f5bc dfbe
00000340: a614 153e b87a 12bf 7822 a8be edcc 013f
00000350: a379 88be 41f6 bbbf e1d6 11bf 1fde 9d3e
00000360: 31d5 593e 692f b3bf 9918 64bf b3fc 743e
00000370: 5fec 3cbf dcc2 833e ab1e 22bf f290 563e
00000380: c168 a53d 39a0 08bf aa7d f5bb a32e 1dbf
00000390: 1792 0bbf d2b9 abbf 2566 21bf 2750 d23d
000003a0: 5600 40bf 406b 05bf b491 60bf 5eea debe
000003b0: 3f8b cbbe b011 3dbe 4d00 71bd 81a7 173e
000003c0: 8ee7 0c3f b4b4 a73d 26ff 94bf 3f8a e6be
000003d0: bdba a2be ca04 87bf e660 4dbf d571 92be
000003e0: 95b2 8bbf 5b1e 94bf 7e8b 9ebf d663 c5bf
000003f0: 05c0 cb3d b37b f53c acc7 a7be 5939 4dbf

fc2.weight f4 [300, 402]
-0.05011108 -0.042704117 -0.047906008 -0.024633508 -0.11710066 -0.039312113 0.018783396 -0.052380357
-0.061689712 -0.008909873 -0.0042133145 0.0044004237 -0.018003019 -0.059968367 0.03402298 0.036159504
0.045225684 -0.0011979431 -0.069556795 -0.04186074 -0.005008461 0.03808375 0.018770397 -0.05114936
-0.02120325 -0.037699737 -0.057981066 -0.029882636 0.035057165 0.02916532 0.017473841 -0.02947968
-0.061533425 -0.039907943 -0.037311923 0.025143454 -0.0762966 -0.035038788 -0.019443743 -0.08105084
0.038089234 0.035937097 0.0719085 -0.06296092 0.0343988 -0.073902525 -0.002767903 -0.035877552
-0.036579248 -0.032604713 0.022778159 -0.16833639 -0.018276151 -0.0061476445 0.038776763 -0.02380583
0.006599734 0.042119574 0.042436317 -0.0926947 -0.039172668 -0.074039795 -0.058795966 -0.061894096
-0.04459718 0.039909687 -0.061081674 -0.044459637 0.0053359442 0.0011302766 0.0079837805 -0.052650124
-0.01791758 0.048866563 -0.022638043 0.018087888 -0.062112283 -0.054061305 -0.004198696 0.035756957
-0.048892025 0.014032267 0.015367477 -0.018693097 0.028204229 0.033921935 0.04129689 -0.05729765
-0.0061370158 -0.02661986 -0.00013361301 -0.09657045 -0.0028353953 -0.061931364 -0.04251833 -0.07243741
-0.049409866 0.0025222923 -0.0068757427 0.024141256 -0.05462262 -0.06306182 0.045181938 0.014336509
-0.0352455 -0.043656833 -0.05024694 -0.105153024 -0.027370747 -0.018623872 0.07426926 -0.015245957
-0.006616401 0.0051976503 -0.090068154 0.01623864 0.019371778 -0.013931566 -0.028220974 -0.07672328
-0.05045676 0.018480878 -0.16225171 -0.06589793 -0.037203066 0.031021014 -0.026889475 -0.03795939
-0.042811614 -0.011446451 -2.9161978e-05 -0.009165189 -0.06127949 -0.018872987 -0.0021345238 -0.01382231
-0.03954578 -0.029683711 -0.05651156 -0.07312056 0.043589603 0.021141326 0.008954032 0.023880387
-0.06338791 -0.0269769 -0.0371358 -0.0204929 -0.07116225 -0.022321083 -0.059620243 -0.011024409
0.006648461 -0.07369615 -0.06254258 -0.08919033 -0.09014764 -0.08297008 -0.053183626 0.048847336
-0.007852954 -0.045524217 -0.045075487 -0.057755552 0.016136521 -0.03211585 0.05148451 -0.052440878
0.0063739517 -0.014443959 0.019966822 -0.031294152 -0.051345922 0.05285563 0.023814127 0.0005030564
-0.05226073 -0.028308723 -0.0043622996 0.026345532 -0.056611396 -0.053161282 0.04530894 0.036787126
0.05243093 0.012218811 -0.02838405 0.03967771 0.050046686 -0.046410896 -0.021628633 -0.021154217
0.0023496028 0.009704098 -0.0045023314 -0.046554055 -0.0818886 0.020313999 -0.0057277014 -0.008945668
-0.056697972 0.013769262 0.024012057 0.051508393 -0.030043852 -0.050623797 0.036144268 0.0013817749
0.017778238 -0.034036633 -0.0011785773 -0.016820354 0.030118488 -0.052158784 0.03293055 0.02410668
0.027057817 -0.052720457 -0.010356238 -0.09511771 0.010252043 0.032163575 0.017213458 -0.049896788
0.024723794 0.006163349 -0.010815267 -0.04034724 0.021339366 -0.034633614 -0.06249528 0.013385641
-0.01797457 0.0040149232 -0.051270124 0.0058634034 -0.024261616 -0.02567646 -0.07215119 0.0042425715
0.022771973 -0.015733568 -0.044746492 0.06613964 -0.046520084 -0.053536937 0.02945522 -0.016789308
-0.04680692 0.03970527 -0.043362543 0.002783247 0.01606137 0.011367659 -0.029436238 -0.038482253
00000000: 4741 4dbd 83ea 2ebd 1739 44bd 36cc c9bc
00000010: 79d2 efbd bd05 21bd a3df 993c c98c 56bd
00000020: 5aae 7cbd b7fa 11bc d80f 8abb 6e31 903b
00000030: 117b 93bc 64a1 75bd ae5b 0b3d fd1b 143d
00000040: 913e 393d 4d04 9dba cb73 8ebd 2b76 2bbd
00000050: 041e a4bb b5fd 1b3d 60c4 993c fe81 51bd
00000060: 70b2 adbc 0a6b 1abd 8e7d 6dbd 6ecc f4bc
00000070: 1a98 0f3d 1cec ee3c 4d25 8f3c 5f7f f1bc
00000080: 790a 7cbd 8376 23bd 63d4 18bd a5f9 cd3c
00000090: 6441 9cbd d584 0fbd 7c48 9fbc fcfd a5bd
000000a0: 7503 1c3d c732 133d c344 933d a8f1 80bd
000000b0: c2e5 0c3d 355a 97bd b565 35bb 57f4 12bd
000000c0: 1fd4 15bd 858c 05bd 4399 ba3c 6060 2cbe
000000d0: deb7 95bc 2e72 c9bb 62d4 1e3d 7204 c3bc
000000e0: 9542 d83b 9385 2c3d b4d1 2d3d b8d6 bdbd
000000f0: 8573 20bd 2da2 97bd 0ad4 70bd aa84 7dbd
00000100: 88ab 36bd 5778 233d c730 7abd 4f1b 36bd
00000110: 25d9 ae3b ca25 943a 67ce 023c a8a7 57bd
00000120: e4c7 92bc 4e28 483d 6b73 b9bc 0d2d 943c
00000130: 7369 7ebd 636f 5dbd 3795 89bb e375 123d
00000140: 0143 48bd 98e7 653c dfc7 7b3c 4422 99bc
00000150: 8e0c e73c baf1 0a3d ed26 293d f1b0 6abd
00000160: 0519 c9bb e511 dabc 781a 0cb9 bac6 c5bd
00000170: 0ad2 39bb beab 7dbd b327 2ebd 115a 94bd
00000180: 0062 4abd 0b4d 253b e94d e1bb e2c3 c53c
00000190: f8bb 5fbd 8e26 81bd b210 393d ade3 6a3c
000001a0: 965d 10bd 82d1 32bd bccf 4dbd 785a d7bd
000001b0: 9e38 e0bc 1791 98bc 7b1a 983d 2eca 79bc
000001c0: 65ce d8bb 0d51 aa3b a775 b8bd e506 853c
000001d0: 90b1 9e3c 3941 64bc ac2f e7bc 1821 9dbd
000001e0: bfab 4ebd 3665 973c 5025 26be 7ef5 86bd
000001f0: 3e62 18bd c81f fe3c 5147 dcbc 4e7b 1bbd
00000200: 3b5b 2fbd e589 3bbc dfa0 f4b7 9729 16bc
00000210: 3400 7bbd 869b 9abc 5ee3 0bbb f876 62bc
00000220: c1fa 21bd 412b f3bc aa78 67bd 3bc0 95bd
00000230: 038b 323d 9330 ad3c efb3 123c cda0 c33c
00000240: 85d1 81bd a9fe dcbc b51b 18bd bae0 a7bc
00000250: 84bd 91bd b4da b6bc 5b34 74bd b99f 34bc
00000260: 55db d93b 02ee 96bd 5316 80bd 6ba9 b6bd
00000270: 539f b8bd 38ec a9bd 13d7 59bd 2514 483d
00000280: ada9 00bc 9a77 3abd 13a1 38bd 1691 6cbd
00000290: bd30 843c e98b 03bd 6ce1 523d 3fcc 56bd
000002a0: 95dc d03b 5ba6 6cbc 7691 a33c 4c2e 00bd
000002b0: 1a50 52bd 257f 583d d815 c33c 8bdf 033a
000002c0: 590f 56bd b2e7 e7bc 9ff1 8ebb 96d2 d73c
000002d0: 5ae1 67bd a5bf 59bd de95 393d 19ae 163d
000002e0: d1c1 563d 6831 483c ab85 e8bc 1885 223d
000002f0: c1fd 4c3d 5a19 3ebd 882e b1bc 9c4b adbc
00000300: cbfb 193b f0fd 1e3c 4b88 93bb 77af 3ebd
00000310: 36b5 a7bd 8b69 a63c 71af bbbb da90 12bc
00000320: 223c 68bd 7898 613c efb4 c43c 77fa 523d
00000330: 861e f6bc e65a 4fbd 030c 143d ac1c b53a
00000340: aba3 913c ff69 0bbd 7e7a 9aba d7ca 89bc
00000350: 0cbb f63c 73a4 55bd 2fe2 063d 5f7b c53c
00000360: 5ba8 dd3c 68f1 57bd 36ad 29bc 13cd c2bd
00000370: 2ff8 273c f4bd 033d 3d03 8d3c 9360 4cbd
00000380: 8e89 ca3c ebf5 c93b 8532 31bc 2643 25bd
00000390: e5cf ae3c fadb 0dbd 0dfb 7fbd 734f 5b3c
000003a0: 683f 93bc 9e8f 833b 9f00 52bd cb21 c03b
000003b0: 4cc0 c6bc 7057 d2bc 01c4 93bd 4505 8b3b
000003c0: 4a8c ba3c afe3 80bc 1948 37bd 3874 873d
000003d0: d88b 3ebd 8c49 5bbd 134c f13c bb89 89bc
000003e0: 9db8 3fbd fea1 223d ec9c 31bd 2367 363b
000003f0: 2293 833c 6b3f 3a3c 4424 f1bc 919f 1dbd

fc2.bias f4 [300]
-0.12095614 -0.13104144 -0.087521665 -0.11102097 -0.06800821 -0.1355717 -0.043573197 -0.019268548
-0.035409845 -0.045826666 -0.12665534 -0.12117412 -0.08217182 -0.004095665 -0.17434958 -0.10809942
-0.016570713 -0.018843852 -0.06377072 -0.06936767 -0.54951113 -0.02525853 -0.35666764 -0.060147014
-0.07467145 -0.39323136 -0.05797919 -1.1628861 -0.11486313 -0.004995542 -0.26266024 -0.10889632
-0.084127665 -0.70432174 -0.024508514 -0.09431437 -0.44960278 -0.055133417 -0.065515056 -0.029346801
-0.026475096 -0.08815769 -0.84536964 -0.10452968 -0.065442435 -0.29478234 -0.005264466 -0.1137545
-0.1014461 -0.004411357 -0.49666065 -0.06489482 -0.038288776 -0.0041010063 0.23979196 0.056954756
-0.12245573 -0.06287044 -0.06867244 -0.061584603 -0.35609284 0.11243789 -0.040111497 -0.076991074
-0.089166455 -0.077559404 0.0005331915 1.031109 -0.018508015 -0.06763248 -0.09361018 -0.048233654
-0.027179744 -0.06629341 -0.13610803 -0.026127711 -0.07845695 -0.055908184 -0.5221264 -0.12753014
-0.16930763 -0.060470734 -0.008895042 -0.08692482 -0.124096155 -0.44028628 -0.051003825 -0.036732465
0.57388645 -0.12389003 -0.51145136 -0.07767633 -0.35861528 -0.079357825 -0.054124463 0.020244468
-0.08181243 -0.034701478 -0.6492793 -0.6573494 -0.055775926 -0.105927445 -0.02012053 -0.10709176
-0.06301862 -0.04580546 -0.120124586 -0.02432298 -0.02761385 -0.028986039 -0.0069445744 -0.04719961
-0.029406678 -0.14595482 -0.051069457 -0.07543455 1.065201 -0.04071736 -1.1359437 -0.08918558
-0.07687447 -0.07483925 -0.051978815 -0.00054875715 -0.3261688 -0.08905258 -0.2864024 -0.03529557
0.06260348 -0.03585081 -0.04559361 -0.22515586 -0.03747257 -0.081948236 -0.042976625 -0.022686569
-0.022969715 -0.047708694 -0.92375404 -0.09070199 -0.048360463 0.028536499 -0.09803851 -0.07325238
-0.09923106 -0.056344744 -0.045749094 0.04539506 -0.04738654 -0.040211357 -0.34218705 -0.08362774
-0.097504586 -0.4560404 0.006966673 -0.258028 -1.1893646 -0.027980605 -0.9963364 -0.13614109
-0.078272946 -0.2551174 1.4834483 -0.10614373 -0.15896992 -0.103373505 -0.040281545 -0.07458195
-0.06390628 -0.06563013 -0.023922764 -0.07292893 -0.0456794 -0.4121791 -0.06969609 -0.032723032
-0.48725396 -0.056210537 -0.021473508 -0.025792753 -0.060392924 -0.057526264 -0.10704698 1.1557367
-0.063746236 0.5459569 -0.07658987 0.24892879 -0.021278206 -0.2354191 -0.56216085 -0.06397055
-0.06855738 -0.23476538 -0.087115556 0.25953603 -0.06862321 -0.07791927 -0.094285205 -0.08404753
-0.19137587 -0.6115605 -0.059468154 -0.0642558 -0.32756433 -0.092321984 -0.10626145 -0.08605529
-0.4212432 -0.41768286 -0.040343758 -0.7448573 -0.0843073 -0.08794062 -0.024609951 -0.021647586
-0.0842373 -0.05725798 -0.091436595 -0.06478983 -0.041621283 -0.036182333 -0.18016087 -0.091182604
-0.5567138 -0.07106548 -0.09171428 -0.06424969 -0.055604532 -0.057641163 -0.07635069 -0.050255734
-0.091376685 -0.05560808 -0.040494606 -0.07257128 0.018556776 -0.018575624 0.14631057 -0.050503068
-0.09171515 -0.105735384 -0.042323656 0.004683833 -0.097944476 -0.064451 -0.112278655 -0.10436142
-0.57379264 -0.09281997 -0.25057313 -0.02519353 -0.05403914 -0.03721784 -0.0976016 0.0024018197
00000000: dab7 f7bd ba2f 06be 8f3e b3bd f65e e3bd
00000010: e347 8bbd 4fd3 0abe cf79 32bd 13d9 9dbc
00000020: ea09 11bd beb4 3bbd f0b1 01be 232a f8bd
00000030: b349 a8bd ee34 86bb b288 32be 3b63 ddbd
00000040: 4ebf 87bc 6c5e 9abc 399a 82bd a310 8ebd
00000050: c3ac 0cbf faea cebc 249d b6be b75c 76bd
00000060: 58ed 98bd 9f55 c9be 967b 6dbd 74d9 94bf
00000070: 5c3d ebbd a5b1 a3bb 677b 86be 0905 dfbd
00000080: 204b acbd 6e4e 34bf 14c6 c8bc e427 c1bd
00000090: 5632 e6be 94d3 61bd c22c 86bd b468 f0bc
000000a0: 4de2 d8bc 058c b4bd 256a 58bf a813 d6bd
000000b0: af06 86bd b6ed 96be 8b81 acbb 1ff8 e8bd
000000c0: f9c2 cfbd 258d 90bb 4e4a febe 93e7 84bd
000000d0: b1d4 1cbd bc61 86bb 068c 753e 6449 693d
000000e0: 12ca fabd 38c2 80bd 23a4 8cbd 2340 7cbd
000000f0: cd51 b6be d645 e63d f44b 24bd 7fad 9dbd
00000100: e79c b6bd 77d7 9ebd e0c5 0b3a 61fb 833f
00000110: 1f9e 97bc e682 8abd b2b6 bfbd a790 45bd
00000120: 0ea8 debc d7c4 87bd e75f 0bbe c809 d6bc
00000130: 0aae a0bd fbff 64bd 13aa 05bf 4397 02be
00000140: fb5e 2dbe 29b0 77bd 83bc 11bc a405 b2bd
00000150: 2026 febd 346d e1be 63e9 50bd c874 16bd
00000160: 39ea 123f 0eba fdbd 7aee 02bf c514 9fbd
00000170: 6c9c b7be 5b86 a2bd 9db1 5dbd bad7 a53c
00000180: 468d a7bd 2323 0ebd 2b37 26bf 0d48 28bf
00000190: 4c75 64bd 7df0 d8bd cfd3 a4bc ed52 dbbd
000001a0: e80f 81bd 829e 3bbd e103 f6bd fc40 c7bc
000001b0: 7136 e2bc 2174 edbc 508f e3bb 6154 41bd
000001c0: 46e6 f0bc 2e75 15be 352e 51bd 6e7d 9abd
000001d0: 8258 883f 3fc7 26bd 9a66 91bf eea6 b6bd
000001e0: 5d70 9dbd 5245 99bd bde7 54bd 78da 0fba
000001f0: 99ff a6be 3361 b6bd 56a3 92be 1692 10bd
00000200: 4136 803d 4dd8 12bd 5dc0 3abd 428f 66be
00000210: d67c 19bd 7ad4 a7bd 4208 30bd 2fd9 b9bc
00000220: fc2a bcbc 316a 43bd 257b 6cbf f7c1 b9bd
00000230: 9f15 46bd 60c5 e93c 6ac8 c8bd 5805 96bd
00000240: a739 cbbd bfc9 66bd 6763 3bbd 2cf0 393d
00000250: 6318 42bd aab4 24bd 2433 afbe 0545 abbd
00000260: 7cb0 c7bd 217e e9be b048 e43b 3f1c 84be
00000270: 193d 98bf 9537 e5bc e70f 7fbf 9268 0bbe
00000280: 914d a0bd bf9e 82be a2e1 bd3f e261 d9bd
00000290: 03c9 22be 7db5 d3bd 43fe 24bd 6cbe 98bd
000002a0: 4ce1 82bd 1769 86bd acf9 c3bc c35b 95bd
000002b0: 531a 3bbd 2409 d3be d3bc 8ebd 9608 06bd
000002c0: 5a79 f9be 053d 66bd 36e9 afbc 534b d3bc
000002d0: 925e 77bd a9a0 6bbd 723b dbbd 2eef 933f
000002e0: 638d 82bd d5c3 0b3f 26db 9cbd 30e7 7e3e
000002f0: a24f aebc b411 71be c6e9 0fbf fe02 83bd
00000300: d067 8cbd 5666 70be a469 b2bd e8e1 843e
00000310: 538a 8cbd 2394 9fbd 9a18 c1bd 1d21 acbd
00000320: 09f8 43be 3b8f 1cbf e194 73bd 8b98 83bd
00000330: 83b6 a7be 4f13 bdbd 9a9f d9bd c23d b0bd
00000340: 30ad d7be 87da d5be 7f3f 25bd f8ae 3ebf
00000350: 4ea9 acbd 361a b4bd cf9a c9bc 4756 b1bc
00000360: 9b84 acbd 5887 6abd 1c43 bbbd 88b0 84bd
00000370: 147b 2abd ed33 14bd 177c 38be f2bd babd
00000380: cc84 0ebf c78a 91bd b2d4 bbbd 5795 83bd
00000390: 94c1 63bd 2419 6cbd c05d 9cbd f5d8 4dbd
000003a0: b323 bbbd 4cc5 63bd acdd 25bd 40a0 94bd
000003b0: 6104 983c e82b 98bc 70d2 153e 4edc 4ebd
000003c0: 27d5 bbbd cb8b d8bd 925b 2dbd d77a 993b
000003d0: 1d97 c8bd e3fe 83bd 5af2 e5bd 71bb d5bd
000003e0: 13e4 12bf 6518 bebd 1f4b 80be a962 cebc
000003f0: 2558 5dbd bc71 18bd 59e3 c7bd d967 1d3b

fc3.weight f4 [1, 300]
0.0057394714 0.016505713 -0.005973947 -0.0044872863 0.019261306 -0.04675604 0.003492996 -0.0046589384
-0.0014917065 -0.006044301 0.015272275 0.0020786382 -0.008993171 -0.017111946 -0.025647178 0.00012893598
-0.011452056 -0.017609946 -0.0041392734 -0.005102819 -0.052855674 -0.010518056 -0.016941445 -0.004617983
0.037929416 -0.03080389 0.012837946 -0.019271756 0.009984211 0.018567028 -0.051288467 -0.0043773646
-0.010815314 -0.022416417 0.009608419 -0.016473996 -0.021108527 -0.0016265155 -0.00041048363 -0.027773013
-0.021926822 0.03587707 -0.0083767455 -0.0035268904 0.01663208 -0.013537362 -0.016840715 0.0075761485
0.0022716036 -0.004784741 -0.03243081 0.009053354 0.0030880987 0.02816379 0.014256229 0.02993854
0.009857945 0.020266088 0.010450813 -0.00046642934 -0.06201554 -0.0134361675 -0.010815385 0.01946995
-0.009198755 -0.021988858 -0.0036399085 0.009990937 0.013498637 0.02342084 0.01733578 -0.01754857
-0.002488944 -0.013717092 -0.0023006254 -0.021047886 0.003256879 -0.013192097 -0.057720933 0.031873573
0.058333598 -0.005841903 0.0064710723 0.016539058 0.0028315817 -0.04648322 -0.024914164 -0.02580887
-0.008238069 0.03775895 0.03182085 -0.000114396826 -0.09713355 0.00179054 0.00898994 0.012984209
0.013352761 -0.010890827 -0.018420413 -0.032582123 0.027026657 0.013108266 0.04394349 0.07866332
-0.024988595 -0.0006562363 -0.0092581 -0.026416691 0.013576961 0.021463186 -0.029667623 0.019454848
0.00039993325 -0.020800728 -0.03315537 -0.017186884 -0.011341844 -0.0069242385 -0.014215761 0.011609143
0.007619316 0.011491775 0.020404492 0.013577197 -0.21752831 -0.01274988 -0.017244706 0.017793601
-0.03998628 -0.013244712 0.010658343 -0.011863551 0.00544492 -0.011654948 0.020671435 -0.04259978
-0.014759695 0.015374654 -0.03167622 0.10448855 0.010485034 0.07152424 0.01164395 0.011641512
-0.017945359 -0.03037163 0.0013384821 0.017632164 0.0026181247 -0.022724887 -0.0505824 -0.008894583
-0.0075968797 -0.044848282 -0.015449786 0.034939665 -0.034899037 -0.015073389 -0.020778576 0.023849718
-0.023465721 -0.10012563 0.006850253 -0.014781482 -0.0017073294 -0.0061480105 -0.024119303 -0.020305976
-0.030050294 -0.010108264 -0.0014909516 0.007886897 0.013035408 -0.043043077 0.014749789 0.0025804823
-0.028002912 0.014527451 -0.0062749595 -0.005573998 0.00059871416 0.0075378423 0.0034477015 0.013039963
0.0018432046 0.022014854 0.0041894247 0.013561275 0.017878458 -0.021513041 0.00830187 -8.481149e-05
-0.005748987 -0.045065142 -0.0011120201 0.048753265 -0.0041531236 0.036172215 0.021594912 -0.002110593
-0.042950734 -0.034768455 -0.0153427115 0.0042549064 0.01625105 -0.002916845 -0.026719444 0.009372257
0.044549078 0.020695666 -0.004879234 -0.034757935 -0.011031634 -0.029261298 -0.010380913 0.015414673
-0.009115627 -0.011455911 0.02033657 0.022719184 0.019086348 0.015575672 0.012885002 0.018921565
-0.03320006 0.030591685 -0.021741377 0.013467984 0.013951842 0.009561117 0.0050561163 0.020807775
-0.002611147 -0.0060463967 -0.008975563 -0.0004105015 -0.011620952 0.010841678 -0.013457572 0.01641662
-0.023465917 -0.0024135215 -0.010081637 -0.00878234 -0.04052952 -0.01844899 0.011460987 -0.0015582662
-0.08666456 0.013155648 0.036143072 0.0036473477 0.0049836263 -0.0037835515 0.019448325 -0.009403113
00000000: 2d12 bc3b fd36 873c 19c1 c3bb 160a 93bb
00000010: e3c9 9d3c 4383 3fbd c0ea 643b 02aa 98bb
00000020: 5d85 c3ba 460f c6bb 9038 7a3c c339 083b
00000030: 1858 13bc 5a2e 8cbc 081a d2bc fd32 0739
00000040: 67a1 3bbc bc42 90bc bea2 87bb 8c35 a7bb
00000050: 317f 58bd ed53 2cbc c9c8 8abc 7352 97bb
00000060: e05b 1b3d 7158 fcbc 4056 523c cddf 9dbc
00000070: d194 233c e119 983c db13 52bd ff6f 8fbb
00000080: b732 31bc a2a2 b7bc a16c 1d3c 79f4 86bc
00000090: caeb acbc ce30 d5ba 2e36 d7b9 3b84 e3bc
000000a0: e19f b3bc d6f3 123d 9e3e 09bc 6723 67bb
000000b0: 0040 883c d0cb 5dbc 8af5 89bc 5741 f83b
000000c0: 2fdf 143b 51c9 9cbb 2bd6 04bd 8554 143c
000000d0: b361 4a3b c0b7 e63c f592 693c ab41 f53c
000000e0: 3883 213c 1105 a63c e339 2b3c 168b f4b9
000000f0: 0204 7ebd 5f23 5cbc 0333 31bc 727f 9f3c
00000100: 60b6 16bc fa21 b4bc 888b 6ebb 07b1 233c
00000110: 6329 5d3c 10dd bf3c c403 8e3c 05c2 8fbc
00000120: 8d1d 23bb a7bd 60bc 17c6 16bb 9e6c acbc
00000130: 5d71 553b aa23 58bc c96c 6cbd dd8d 023d
00000140: 36ef 6e3d 6f6d bfbb 4a0b d43b eb7c 873c
00000150: 0f92 393b 3065 3ebd ca18 ccbc 206d d3bc
00000160: f7f8 06bc 21a9 1a3d 9456 023d 54e8 efb8
00000170: f4ed c6bd 8db0 ea3a 8b4a 133c b8bb 543c
00000180: 8ac5 5a3c 706f 32bc 68e6 96bc d574 05bd
00000190: 0267 dd3c 0dc4 563c 17fe 333d 3c1a a13d
000001a0: e2b4 ccbc 4607 2cba 49af 17bc d167 d8bc
000001b0: e771 5e3c 90d3 af3c 8409 f3bc c65f 9f3c
000001c0: 22ae d139 4a66 aabc edcd 07bd 82cb 8cbc
000001d0: 24d3 39bc b9e4 e2bb 39e9 68bc 4634 3e3c
000001e0: 75ab f93b ff47 3c3c 5227 a73c e472 5e3c
000001f0: bebf 5ebe dfe4 50bc c544 8dbc e3c3 913c
00000200: a7c8 23bd 5900 59bc 55a0 2e3c 575f 42bc
00000210: 4d6b b23b 65f4 3ebc 2457 a93c 1b7d 2ebd
00000220: a6d2 71bc f9e5 7b3c edbe 01bd 18fe d53d
00000230: 6cc9 2b3c 4d7b 923d 44c6 3e3c 0abc 3e3c
00000240: 2502 93bc edcd f8bc 0270 af3a 5471 903c
00000250: d894 2b3b 8b29 babc 7e2f 4fbd 96ba 11bc
00000260: 3fef f8bb d5b2 37bd 1921 7dbc e51c 0f3d
00000270: 4bf2 0ebd 60f6 76bc d537 aabc 7c60 c33c
00000280: 2f3b c0bc ab0e cdbd 1678 e03b 072e 72bc
00000290: 78c8 dfba 4075 c9bb d895 c5bc b858 a6bc
000002a0: 092c f6bc 229d 25bc 096c c3ba 0b38 013c
000002b0: 7792 553c f04d 30bd 19a9 713c 4f1d 293b
000002c0: 5d66 e5bc 8c04 6e3c 2d9e cdbb 16a6 b6bb
000002d0: 07f3 1c3a 0100 f73b d5f2 613b 92a5 553c
000002e0: af97 f13a 7f58 b43c 7147 893b 1c30 5e3c
000002f0: d875 923c 1e3c b0bc 9104 083c d2dc b1b8
00000300: 0062 bcbb 3a96 38bd 34c1 91ba 81b1 473d
00000310: ed16 88bb 5129 143d d0e7 b03c e051 0abb
00000320: 1ced 2fbd 5e69 0ebd ff5f 7bbc be6c 8b3b
00000330: ec20 853c 8a28 3fbb bce2 dabc 188e 193c
00000340: 1879 363d f589 a93c fbe1 9fbb 565e 0ebd
00000350: 07be 34bc 64b5 efbc b414 2abc d38d 7c3c
00000360: b659 15bc 93b1 3bbc e198 a63c 951d ba3c
00000370: f95a 9c3c 1a31 7f3c 9e1b 533c 6601 9b3c
00000380: c9fc 07bd 6a9b fa3c f91a b2bc d2a8 5c3c
00000390: 4496 643c 3ba6 1c3c c7ad a53b 1175 aa3c
000003a0: c71f 2bbb da20 c6bb 3d0e 13bc 9438 d7b9
000003b0: ce65 3ebc 4ba1 313c 267d 5cbc 267c 863c
000003c0: 983b c0bc 2c2c 1ebb 732d 25bc cee3 0fbc
000003d0: 4802 26bd 5622 97bc ddc6 3b3c bd3e ccba
000003e0: 307d b1bd c98a 573c c20a 143d 5708 6f3b
000003f0: b04d a33b 76f5 77bb 1852 9f3c 840f 1abc
